artifacts/models/prajjwal1_bert-tiny_20251201_121349.pt (torch, 486245 bytes, 6 tensors)

sequential.0.weight f4 [256, 128]
00000000: 14be 4d3d 688d 1fbd b77b bb3c b6c4 c6bc
00000010: 4d7d 8dbc 2ab0 e13c ea3a 8abd 952a a8bd
00000020: 22ec 213c 5de3 3fbd 8897 91bd 8218 8fbc
00000030: f50f 69bd b424 313d 4886 183c 2076 a53d
00000040: 76a6 3b3d cdf7 a1bd 6931 013c 2399 0d3d
00000050: b385 24bd 484e 9bbd 6e41 4bbd 36fb 74bd
00000060: 4937 92bd 8ea1 203b c3d2 3f3c ab91 76bd
00000070: 0d1f 9d3d 49ac 1fbd da34 be3c 1cdf fdbc
00000080: dbbb 6b3d b9bd db3c 3778 833b d36a a2bb
00000090: 17f2 93bd c42e 2fbd 7071 8abb b074 273c
000000a0: 464a ef3c 2db9 0a3d 8085 55bd 0c1c ab3d
000000b0: 5c94 b73d 79fc 513c 49a8 a83c 3775 f9bc
000000c0: 5a18 823d d698 02bb 9ee4 8cbd b686 f5ba
000000d0: 2081 76bc d676 bfbd 578a 403d ae07 f13c
000000e0: cd03 8abd e777 663c 64e6 5c3d 5380 de3a
000000f0: 68bf 4d3c 77ca e43b 22bb 533c 2ce6 a2bd
00000100: e9ce 0e3d 7b27 903b 778c 80bd c349 b83c
00000110: bc24 f13b 7e67 acbb 09af 92bd 7ff6 103d
00000120: 1397 f03c 6003 b7bb 3dbf c3bc 6864 88bd
00000130: c8f4 3b3d 599a 303d 8101 563d 574d 04bd
00000140: b393 0fbd 73e5 a6bd e613 44bd 5b17 943d
00000150: 554c bdbd 975e 603c c1a5 91bd 7378 babd
00000160: 6ed2 abbc 785c a03c bf96 b1bd 00ef 153d
00000170: 29d5 49bd b55b 72bc 9bd9 1b3d c8df 9f3d
00000180: 8dab 36bb d3f2 ba3d 9db5 033d 173c 583d
00000190: c5cd 993d 709c c53c e670 2cbc e732 80bd
000001a0: 0c27 e9bb 5e85 c93c 3ef0 d3bc 14c9 2a3d
000001b0: 618b 91bd b49a 8cbd 6309 ad3d 0012 913d
000001c0: 056f 623c 443a c2bd baf6 b83d 560b a43d
000001d0: fbd1 613d a66c 4b3c 3602 793c 108c b8bd
000001e0: 369a c1bb b745 73bd e39e 8d3d d274 32bd
000001f0: 9292 163d bdc9 21bb aeed e73c b0ba 84bd
00000200: 0639 62bd d997 c23d 251d b8bd 21f6 c93d
00000210: 0cb3 b03c 7246 943d fda6 c83e 4d8b 0a3d
00000220: 24a6 073d e9bb 7abc b5ef b23b d129 b9bb
00000230: fa5b 9d3e f6ec a03d db4d 60bd 4aed bdbd
00000240: 1bf6 903d 973f 47bd 8058 053d 56b2 3bbd
00000250: dc7e 27bd 9411 723c 0c30 cebc 3af3 9c3d
00000260: f2fe 1f3d 8d57 0f3d 7e2f 8fbd 50aa c53d
00000270: 9f22 5dbe 9705 e8bd af32 94be b835 00bc
00000280: f111 90be d625 c03d 29e2 bcbc 6521 133d
00000290: 98b6 85ba 2e11 e73d 18e2 cb3b b2d7 a33d
000002a0: 21ba ec3d f8dd acbd 14e4 6b3d 3c14 cbbd
000002b0: 22db 1ebe 3c5e 583d 44f8 14be 0e2c 0abe
000002c0: c9c3 a9bb 57e5 b23e e311 263e 136d 833d
000002d0: 7c50 22bd e938 b3bc 991f 123d dc42 d8bc
000002e0: 1111 06be ca9d e33d 18a3 2fbd 780b acbd
000002f0: 2e41 cd3d 0905 1cbd defb 013d 5546 97bd
00000300: 08b8 89bd f99a 943d 39fc 86bc 9bbe 02bd
00000310: 6981 a73d 9a4b 833d 2e04 073e 0b28 31bc
00000320: 60d9 7c3d d2e7 49bd 1045 8e3d 0335 72bd
00000330: 4532 eb3d b4c3 813d b790 863d c9b6 bebd
00000340: 5381 c93d bfb2 61bd 0123 343d f523 cb3c
00000350: dfb7 76bd 6ef6 afbd aa3d 653c 9af2 453e
00000360: e8bd 033c ceb1 bfbb 9f28 4b3c 4da3 80bd
00000370: 6840 8cbd b7d9 513d 97ec 703d b2bb 82bd
00000380: 8d86 bebd 0c15 ae3d 27c3 5c3e aafd d83c
00000390: e27c 183d bed6 853e 3dc2 88bd 4757 313c
000003a0: b857 9c3d 1785 a43d ae31 293d 5d36 953d
000003b0: 2914 503d 36ea aabc 20a3 aebd 24e0 a6bc
000003c0: 0465 7ebd 01ac 2f3e c183 873c 4076 b03d
000003d0: 71c1 8b3d cac3 b3b8 5ba3 9cbc 9170 1f3e
000003e0: ff86 83bd 3815 c73d ce50 a63c 2a27 e6bb
000003f0: 7780 013d b232 5b3c f22c 6e3d 2459 2e3c
0.0502301 -0.038953215 0.02288614 -0.024263721 -0.017271662 0.027549822 -0.06749518 -0.08211247
0.009882959 -0.04684769 -0.071089804 -0.01746774 -0.056899983 0.043247893 0.009309359 0.08079171
0.045813046 -0.079085924 0.007885315 0.03456987 -0.040166568 -0.0758329 -0.049622945 -0.059809886
-0.07139451 0.0024510357 0.011707964 -0.060197514 0.07671938 -0.038982663 0.023218561 -0.030990176
0.0575522 0.026823865 0.0040121335 -0.004956582 -0.07223909 -0.04276921 -0.0042249486 0.010220692
0.029210221 0.033868004 -0.05212927 0.08354959 0.08963844 0.012816542 0.020588057 -0.0304514
0.06352301 -0.0019927523 -0.06879543 -0.0018732164 -0.015045434 -0.09348838 0.04700693 0.029422607
-0.06739006 0.014066673 0.053930655 0.00169755 0.012557842 0.0069821435 0.012923034 -0.07954058
0.034865294 0.0043992377 -0.062767915 0.02249611 0.0073591154 -0.0052613607 -0.071622916 0.035391327
0.029368913 -0.005585119 -0.0238949 -0.06659776 0.04588774 0.043115947 0.052247528 -0.03230032
-0.035052966 -0.08149233 -0.04787054 0.07231017 -0.09243075 0.013694427 -0.07111693 -0.09105005
-0.020974364 0.019575343 -0.08671331 0.03660488 -0.04927555 -0.0147923725 0.03804932 0.07806355
-0.0027873248 0.09128346 0.03215562 0.05279168 0.075099505 0.024122447 -0.010524964 -0.06259709
-0.0071152505 0.024599727 -0.025871392 0.04169567 -0.071066625 -0.06865445 0.08449056 0.07083511
0.013820414 -0.094837695 0.09031434 0.08009975 0.055131894 0.0124160405 0.015198281 -0.0901109
-0.005908276 -0.059392657 0.06915071 -0.04356844 0.036760874 -0.0024686896 0.028311577 -0.0648092
-0.055230163 0.09501619 -0.08989934 0.098613985 0.021569751 0.07239999 0.39189902 0.033824254
0.03311743 -0.01530359 0.005460704 -0.005650737 0.30734235 0.07857697 -0.05476175 -0.09273775
0.07078191 -0.04864463 0.032555103 -0.04582437 -0.040892467 0.014774699 -0.025169395 0.07663579
0.039061494 0.034995604 -0.0699148 0.09651625 -0.21595238 -0.11329191 -0.2894492 -0.007825308
-0.28138688 0.09382217 -0.02305706 0.03592052 -0.0010201512 0.11282574 0.006222021 0.08000125
0.11558939 -0.08440775 0.05759056 -0.09915969 -0.1551328 0.052824244 -0.14547831 -0.13493368
-0.00518081 0.34940597 0.1621776 0.06417289 -0.039627537 -0.021877723 0.035674665 -0.026399069
-0.13092448 0.1111408 -0.042880148 -0.08400625 0.10022198 -0.03809074 0.03173434 -0.07386462
-0.06724554 0.07256121 -0.016477691 -0.031920057 0.0817898 0.06410904 0.13185188 -0.01081277
0.061730742 -0.049293347 0.069467664 -0.059132587 0.114841975 0.063361555 0.06570571 -0.09312207
0.0983912 -0.055102106 0.043978695 0.02479742 -0.060233947 -0.085919246 0.013991753 0.19330826
0.008040883 -0.0058500534 0.012399822 -0.06281147 -0.06848222 0.05123302 0.05881938 -0.06383456
-0.09303007 0.08500108 0.2155882 0.026488144 0.037228473 0.26140398 -0.06677673 0.010824031
0.076339185 0.080331974 0.041307144 0.072857596 0.050800476 -0.020863634 -0.085272074 -0.02037055
-0.062108055 0.17155458 0.016542317 0.086163044 0.068240054 -8.571854e-05 -0.019120863 0.15570284
-0.06422233 0.09720844 0.020302203 -0.0070237117 0.031616654 0.013378786 0.058148332 0.01064137

sequential.0.bias f4 [256]
00000000: ee20 81bc e6bc 8d3d 3893 7fbc 86cb 24bd
00000010: 2a02 a2bd c6a5 763d 7be2 4fbd 429e 8d3d
00000020: 23cd dd3c 7828 ffbc c0db ddbc b684 aabd
00000030: ec27 2abd 31d5 5d3d 1ddd 743b c5ce 683d
00000040: e74d 6bbd 7748 a5bc b026 ee3c 576d 113d
00000050: a70b 0b3d e1a6 9fbd cb64 3c3d 9661 823c
00000060: f8aa 9e3d 3b4d 433d 5ba5 693d ae1f 9d3d
00000070: 19ca 83bc b64b d1bc 36fb 503d 708b 873d
00000080: 8889 183d 44e3 b73c b597 dd3a 3339 babd
00000090: 75b0 123d df38 0a3d ef61 8f3d 48c3 7bbc
000000a0: ce09 23bd 2c7a a7bd 034d 533b c5af b1bd
000000b0: d504 65bd 5818 7abd 7d3a fabc 2931 8cbc
000000c0: 94c7 053d ecd6 aa3d 74f0 81bb 322e 193d
000000d0: a9db 023d 392e 3fbd abe7 6bbd fc2c 6fbd
000000e0: abe7 033d ae26 9d3d e745 223d 3a18 1abd
000000f0: 1d00 933c 2cd0 a0bd ca71 7e3d 8c8d 57bd
00000100: 1681 18bd 2768 52bc 1bb0 c8bd 5985 82bd
00000110: e61d 1abd 8c8d 59bd 2d43 51bd 1a33 f1bc
00000120: cb19 4abd 1c7b ffbc c02d 753d 3e1d 7cbc
00000130: 6600 5f3d 6f4a 1a3d 9828 a73d 9427 4bbc
00000140: c319 b3bd cd08 c03c a2b1 a13d a408 883d
00000150: c55e 363c 10f4 863d 7b2e 883d 654d 7cbd
00000160: 4ebf 333d f871 30bd f740 193d 977d 693d
00000170: 64a7 c5bc 4f39 88bd 8bce 593c 754d cabc
00000180: 8f94 a33d 5142 96bd 9159 83bd a467 463d
00000190: 8815 3abc 27e3 97bd 13e4 753d 8e6c a9bd
000001a0: f626 583d c724 933d d341 9cbc dead 823d
000001b0: 8791 a4bd a5f7 b33c cc0d aebd 7d68 c2bd
000001c0: 06d8 c1bc 6137 7e3d 2a1d a6bd 82c7 c1bc
000001d0: 6695 633d e5a1 7cbd b85d 5abd f51a 9b3d
000001e0: 54b0 923c 6e40 aabd 37a6 8b3d fbd1 f53a
000001f0: b0d6 32bc e8eb bfbb 3cf2 a53d 34d0 a13d
00000200: 4818 72bd 0a2a 913c 86c0 aabd 684e c93c
00000210: 621f 53bd 66fc 01bd 3d32 48bd 5ec6 3fbd
00000220: 7ca5 1c3d 9d58 0e3d 09a3 ea3c 72f9 883d
00000230: 59be c53c 8261 473d 44e9 1e3a 56f3 43bd
00000240: 38d5 f0bc 858c de3c 4774 b23c 7efc babd
00000250: fd2c df3c 53be 02bd dcee aa3b 993e 90bc
00000260: 50ca cbbc ba74 a53d 6b3c 993d d6e5 a03d
00000270: 46c8 273d 5f81 8d3d d293 563d 1a36 51bd
00000280: 997c 023d a8f8 2d3d 4262 893c b84e 9f3c
00000290: dc6b dfba c191 8ebd eaa2 5c3d 9cef e2b9
000002a0: 893f 8dbd b7c8 f8bc 474c d4bc 29e0 3cbd
000002b0: f391 10bc a1e4 ea3c 44df e23c bcd2 683d
000002c0: 6ea3 993d acf7 913d 0b06 c23a 4bf2 7a3d
000002d0: f071 8ebd e02d d33c 790f 543d e798 693d
000002e0: b224 7b3c 145b c2bd 0cfc f7b9 5cfb bfbd
000002f0: a1cb 7ebd 29ca 90bc 8f78 853d 85ae 883d
00000300: dbc5 9abd dd09 97bd d3a2 3d3b 71e7 89bd
00000310: 1120 f3bc cc5c 63bc 6ca9 683c a018 16bc
00000320: 8f5e b3bd 2771 583c 2bf8 96bd d29c 27bd
00000330: ad77 5d3d d8f8 26bc a562 84bd 14ad 4cbd
00000340: 4070 efbc d244 0cbd e50c adbd 3c77 8bbb
00000350: b544 0ebd dd94 0abd 53b5 423d f080 843d
00000360: c12d a23d a21a 0abc c919 34bd 186c 73bd
00000370: 0dc9 34bd 0ac5 adbc 9aa6 fe3d 4b94 6c3c
00000380: fa70 3d3d 3a01 8c3d 1d0a d03c 2945 833c
00000390: d16c 49bd 086c 5a3d 4b9d 893d 3109 97bd
000003a0: 2ed8 76bd dee4 053c 867a d7bb eb0c af3d
000003b0: 3f85 61bd 637d a6bd 4b02 7a3c 5ffd f23c
000003c0: 30bd a03d 2f71 883d 046a 8cbd b04d 923b
000003d0: 5490 ed3c e442 aa3c 0880 b93c 62f4 38bc
000003e0: 21df b23d 7bce 1bb9 2b59 6bbd 51b5 613c
000003f0: 8435 943d 9687 b1bd 7f89 843d e0f1 acbc
-0.015762772 0.06920795 -0.0155990645 -0.040233158 -0.07910569 0.060216688 -0.050753098 0.06914951
0.027075356 -0.031147227 -0.027082324 -0.08326094 -0.04154198 0.054158393 0.003736324 0.056837816
-0.05744734 -0.020176155 0.029071182 0.035504665 0.03394666 -0.077955015 0.04599456 0.015915673
0.077474535 0.047681075 0.05704246 0.07672058 -0.016087579 -0.025548797 0.051020823 0.066183925
0.037240535 0.022447236 0.0016906174 -0.09092941 0.035812814 0.033745643 0.07001101 -0.015366383
-0.039804272 -0.08177599 0.0032241947 -0.086761035 -0.05591281 -0.061058372 -0.030545468 -0.017113285
0.032661036 0.08341774 -0.003965432 0.03739757 0.031947765 -0.04667494 -0.057593983 -0.05839251
0.032203358 0.07673393 0.039617445 -0.03762076 0.01794439 -0.07852206 0.062120236 -0.052625224
-0.03723248 -0.012842215 -0.097992145 -0.0637309 -0.03762617 -0.053113505 -0.051089454 -0.029443312
-0.049341004 -0.031186633 0.059858084 -0.015387831 0.05444374 0.03766864 0.081620395 -0.012399573
-0.08745148 0.023441697 0.07895209 0.06642273 0.011130993 0.0658952 0.066494904 -0.061597247
0.043883614 -0.04307744 0.03741547 0.057004537 -0.02412767 -0.06651556 0.013293873 -0.024695138
0.0798732 -0.073368676 -0.06413568 0.048438683 -0.0113576725 -0.07416373 0.06003196 -0.08272658
0.05277153 0.07184749 -0.019074356 0.06380819 -0.0803557 0.021968672 -0.08498725 -0.09492586
-0.023662578 0.062064532 -0.08111031 -0.023654703 0.0555624 -0.061677832 -0.053312033 0.07573501
0.017906345 -0.0831307 0.06818812 0.0018754596 -0.010915443 -0.0058569796 0.08102843 0.0790104
-0.059105188 0.017720241 -0.08337502 0.02457352 -0.0515436 -0.031734847 -0.048876036 -0.046820037
0.038243756 0.034752477 0.028642194 0.06688203 0.024138616 0.048676975 0.0006061981 -0.047839485
-0.029398546 0.027166614 0.021783961 -0.0913019 0.027243132 -0.03191979 0.0052164625 -0.017607974
-0.024876744 0.080789044 0.07482227 0.07856338 0.04096248 0.06909441 0.052387066 -0.051076986
0.031857107 0.042473465 0.016770486 0.019446716 -0.0017045694 -0.06961394 0.053866304 -0.00043284602
-0.06896884 -0.030369146 -0.025915278 -0.046112213 -0.0088238595 0.028673472 0.027694352 0.056841597
0.07501875 0.07127318 0.0014802826 0.061266225 -0.069553256 0.02577871 0.05177257 0.057030585
0.015328573 -0.09490028 -0.000472993 -0.09374115 -0.062205914 -0.017674522 0.06517135 0.06673912
-0.07557269 -0.07374928 0.0028936162 -0.06733597 -0.029678376 -0.013877105 0.01420055 -0.0091611445
-0.0875827 0.013210571 -0.07371553 -0.04092104 0.05406921 -0.010191165 -0.064641275 -0.049969748
-0.02922833 -0.03424532 -0.08449725 -0.004256157 -0.034733493 -0.033833373 0.047536206 0.064699054
0.07918883 -0.008429201 -0.043969903 -0.059429258 -0.04413705 -0.02121212 0.124341205 0.014439653
0.04625032 0.068361714 0.025395447 0.01602419 -0.04917604 0.053325683 0.067194544 -0.073748
-0.06026476 0.008172242 -0.006575885 0.08547386 -0.055058714 -0.08129384 0.015259336 0.029661832
0.07848585 0.06662213 -0.068561584 0.0044648275 0.028999485 0.020783849 0.022644058 -0.011288734
0.08733965 -0.00014858872 -0.057458084 0.013776139 0.0723677 -0.08668439 0.06471538 -0.021111429

sequential.2.weight f4 [256, 256]
00000000: 3e7f 2e3d 1c5a b73c f835 38bd ec64 49bd
00000010: 30e5 d63c 8c05 b63c a0f6 d1bc d83d 0dbc
00000020: ac09 103d f654 083d 14d8 b6bc b648 173d
00000030: 943e b4bc e0f1 32bc 420c 29bd d4bf 923c
00000040: 6058 0b3b 4ef5 18bd caaf 4abd 6041 44bd
00000050: 548f 5a3d 660e 35bd ae3d 47bd 32e9 083d
00000060: 00bc 9f3b 5ce0 ff3c 009c 72bc 0050 123c
00000070: a075 b33c 08fe eb3c ccb1 be3c 405e 2a3c
00000080: 9814 713c 1e48 55bd eea8 6dbd 7c34 d9bc
00000090: 1e08 2c3d 0429 1e3d 2423 cebc 8094 7b3c
000000a0: 18a8 8e3c e86d 1e3c 0e81 49bd 24ab a23c
000000b0: 827c 353d 06a1 57bd c4c7 1ebd 74aa e13c
000000c0: 446e 8b3c 10a5 40bc 9436 69bd 005b 7cba
000000d0: 845b df3c 8c69 433d a25a 153d d20d 32bd
000000e0: 607f f93b 10ab c93c b030 d7bb 680e 4e3c
000000f0: 9650 05bd ce2c 78bd 2084 a03b c0db d83b
00000100: 5689 44bd 648c d3bc 5035 8b3b 02da 6dbd
00000110: 3c0c 843c d4ce 2fbd cca8 0cbd 6888 2c3c
00000120: 4866 d13c e878 78bc 54d6 aa3c d8e3 b83c
00000130: a07e 223b 429c 25bd a00f 1e3d 02fd 2bbd
00000140: 707c bcbb b068 e5bb e83a 353c 9445 7bbd
00000150: 10b1 95bb acf3 35bd aedb 533d 6620 3f3d
00000160: 4056 2f3b acb1 e0bc 665c 02bd ee97 173d
00000170: 1037 4b3d 62ee 14bd 20b6 c6bb e468 81bc
00000180: 5478 0e3d 1cf0 f33c a4e1 c03c 16b5 5bbd
00000190: e05d 2abc 702e e33c be9e 403d 0239 5dbd
000001a0: 0e89 6dbd 881f 8cbc 30f4 9fbb 9c68 333d
000001b0: 8e55 633d 08c5 273d 6041 e63b 286c 6cbd
000001c0: 1ac8 4c3d 847e 4c3d 383a 44bd c009 833c
000001d0: acf6 b73c 80ef 8f3c 5c56 77bd e075 27bd
000001e0: 50f1 98bb 683f 7bbd 9483 68bd 0c0c a9bc
000001f0: 60c8 263c 5e05 4cbd 1888 443d b08b 53bd
00000200: 3020 62bd 00a5 56bd 0423 7dbd fc0a 0f3d
00000210: 8cc3 843c 30e9 443c 189d 883c 4881 303d
00000220: 105c 1f3c c044 a4ba 0068 2039 b892 743d
00000230: d0d8 503d 4898 1ebc 0085 353d b07d f5bb
00000240: 307e d93b 0670 083d 0c67 cbbc 2030 52bc
00000250: 00cd 613d b4cb d6bc c0f7 80ba 6432 c3bc
00000260: f07b e13b e0f5 313b e062 44bb 247e 6fbd
00000270: a4c2 e2bc 7298 3f3d cc18 02bd f422 25bd
00000280: 202e 21bd c866 543c 98c8 7b3d d096 b1bb
00000290: 543a 4abd 74eb 553d 2893 ea3c 88c7 25bc
000002a0: 2637 7fbd bc59 e63c 00f1 0dbb 3865 b43c
000002b0: c472 3b3d 008d 1bbb 4280 013d 7e06 55bd
000002c0: c02c 6c3b 303f 5c3d 4ccf 8c3c 001d d439
000002d0: 3c68 e5bc 3c5f 1e3d 4029 c4ba 48e6 34bd
000002e0: 28fd 143d 0ae0 6ebd 0826 08bc 402e 6e3c
000002f0: dc39 663d 10a7 d13b 08cc 20bc 009b a23c
00000300: 1c04 97bc fc69 01bd 2e7c 603d ea15 3cbd
00000310: c03e 393d 30fe 343d 7e47 11bd 64d5 2abd
00000320: 802f 413b b0d8 d1bc 4a3e 703d 48ba 113c
00000330: 587f cfbc a423 2bbd b28c 6d3d 405d b33b
00000340: c23f 3d3d 12d2 5abd 0e7d 403d 2c24 cf3c
00000350: 500c fd3c a868 033d 3062 d63b f4a6 e6bc
00000360: 7ec1 5bbd 0002 4a3b 204d 763d 0069 ed3c
00000370: 3a9b 33bd 6ceb 343d 845d 96bc 7e11 53bd
00000380: 8806 9e3c 2c8d c4bc 34e4 85bc f6a5 73bd
00000390: 7a68 21bd 7894 053d 305d 113d 0c76 873c
000003a0: 02d2 4abd 8c16 21bd 8c46 d9bc 708c 773c
000003b0: 60b2 0b3d d435 053d e870 1abd 98e3 aa3c
000003c0: 109d 3abc 3c95 d33c 2298 24bd 2c9d e23c
000003d0: 783c f1bc aad8 40bd 4a32 363d eef1 6b3d
000003e0: e670 7c3d c87b 0f3c 384a 7ebd 1676 5e3d
000003f0: d67a 39bd c052 af3b d057 c4bb c0c3 e93b
0.042601816 0.022381835 -0.044973344 -0.049168512 0.026232332 0.022219442 -0.025630295 -0.008620702
0.035165474 0.03328415 -0.022319831 0.036934577 -0.022002496 -0.010921925 -0.041271456 0.017913736
0.0021262392 -0.037343316 -0.04948405 -0.04791391 0.053359345 -0.044203185 -0.048642807 0.033425517
0.0048747063 0.031234913 -0.014807701 0.008930206 0.021906674 0.028807655 0.02327814 0.0103984475
0.014714383 -0.05207073 -0.058022432 -0.026514284 0.04199993 0.038613334 -0.02516324 0.015355229
0.017414138 0.009669758 -0.04919534 0.019856997 0.044308193 -0.0526438 -0.03876473 0.027547099
0.017020352 -0.011758104 -0.056936815 -0.0009626597 0.027265318 0.04770808 0.036463387 -0.04347021
0.0076140612 0.024617702 -0.0065670833 0.012576677 -0.032547556 -0.060589604 0.004898563 0.006617993
-0.047982536 -0.02582378 0.0042482987 -0.058069237 0.016119115 -0.042921856 -0.034340665 0.010530569
0.025561467 -0.015165545 0.020854153 0.022569582 0.0024794713 -0.040432222 0.03858912 -0.041989334
-0.005752139 -0.007001005 0.011061408 -0.06134565 -0.0045682266 -0.044421837 0.051723175 0.046661757
0.002675429 -0.02742847 -0.0318264 0.037010126 0.04961306 -0.036360152 -0.0060641915 -0.015797086
0.034782723 0.029777579 0.023545094 -0.053639494 -0.010398358 0.027732104 0.04702639 -0.054009445
-0.057992034 -0.017104879 -0.0048814043 0.043800935 0.055501513 0.040959388 0.0070268363 -0.057720333
0.04999552 0.049925342 -0.047907084 0.01599586 0.02245649 0.017570257 -0.060385093 -0.0408839
-0.0046674386 -0.061339766 -0.056766108 -0.020635627 0.010179609 -0.049809806 0.04798135 -0.05164689
-0.055206478 -0.05240345 -0.06180097 0.034922585 0.016206525 0.012018487 0.01667647 0.043092042
0.009726539 -0.0012532696 0.00015297532 0.059710234 0.05098802 -0.009679861 0.04431629 -0.0074917898
0.006637357 0.03330996 -0.02482941 -0.012828857 0.055127144 -0.02622018 -0.000983946 -0.023827739
0.0068812296 0.002715461 -0.002996616 -0.058469906 -0.027680703 0.046776243 -0.03176193 -0.040316537
-0.03935063 0.012963958 0.061470598 -0.0054195896 -0.049372032 0.0522265 0.028634623 -0.010118373
-0.062308453 0.02811896 -0.002165854 0.022020921 0.045763746 -0.0023735166 0.031616457 -0.052008145
0.0036037415 0.053771198 0.01718869 0.00040457398 -0.028003804 0.03866504 -0.0014965907 -0.044164926
0.03637424 -0.05831913 -0.008309849 0.014537394 0.056207523 0.006398089 -0.00981427 0.0198493
-0.018434577 -0.031595215 0.054805927 -0.045919336 0.04522586 0.044187725 -0.03546857 -0.04170741
0.0029477775 -0.02561602 0.058653153 0.008894511 -0.025329277 -0.041782036 0.057995506 0.0054737628
0.046203382 -0.053422995 0.04699426 0.025285803 0.03088966 0.03208223 0.0065424666 -0.028155781
-0.053651325 0.0030823946 0.060132146 0.028980732 -0.043849207 0.04416983 -0.018355139 -0.051530354
0.019290224 -0.023993097 -0.016344167 -0.059484445 -0.039406277 0.032612294 0.03548926 0.016535781
-0.049516685 -0.039328143 -0.026522897 0.0151091665 0.03410566 0.032522038 -0.037705332 0.020860478
-0.011389986 0.025827996 -0.040184148 0.027662836 -0.029447779 -0.047081627 0.044481553 0.05760377
0.061631106 0.008757539 -0.0620825 0.054311834 -0.04528316 0.0053504407 -0.0059919134 0.007133931

sequential.2.bias f4 [256]
00000000: d05c b33b dc47 5ebd d570 f3bb 591b 5e3d
00000010: 4cbd 623d d462 91bd 9a14 69bd d3ff f13c
00000020: 634d 55bd bccb a4bd 9953 e33c 306e 3d3c
00000030: c1ef d63c 7a42 0dbc 26bd a9bd e24a b93b
00000040: 3d12 29bd 4820 033e 7129 24bd 7f1f 72bd
00000050: c503 37bd 0ec8 dc3d 3198 79bd 70eb 7abd
00000060: 1b0c 4d3d 9d91 9b3c bb9d 79bd d22d de3b
00000070: af95 ef3b 4c8e 5cbd 299e a9bd f3d4 93bb
00000080: 0d79 88bd f209 d0bc a9e4 353d 1f14 93bd
00000090: 9135 abbd d014 ab3c 1749 813c babc 253d
000000a0: b307 2cbd 828d 33bd f2ff 7a3c a79d 1ebd
000000b0: 107b 7b3d 7eba 6a3c b6fe 4fbd 2ab4 123c
000000c0: babd 563c a0b4 fabb f8c6 f7bc cfa2 d53d
000000d0: 1cf2 ccbc 757c 8d3c 4e88 a1bd d7b3 d0bc
000000e0: 68d4 dbbc 6e88 373c 0679 bb3d e97f 8e3c
000000f0: 6594 0dbb e07a d1bb 2fe9 623d f979 d23b
00000100: 1cc3 99bc 3cf0 ce3c dde0 bc3d 18e2 f83c
00000110: 8297 8f3d c3d5 1f3d 8276 ecbb 7734 e1bc
00000120: 98c3 883d 3bf6 5a3c be6a 2d3d 2227 c83c
00000130: d5d7 de3c 5e9e cd3c 46d6 42bd f141 1bbd
00000140: 8a2f a1bd ec44 09bc f550 433d 7231 36bd
00000150: 36d0 a9bd 0866 4cbd 079c f2bc 321a 3a3c
00000160: 4976 11bd dce1 69bd 0a6f 833c 4980 833c
00000170: 08fd f33c 57ae b9bc fa2c 483d 3636 0dbd
00000180: 6c25 63bd f6a4 993d deaa 073d 14c2 2fbd
00000190: f122 ac3d 418b 1abc c5d8 83bd 88b9 50bc
000001a0: 172d 06bd 32cb 553d 94b6 5e3d 3ac8 ffbc
000001b0: 88fa 45bc 760c c2bc 2a3b febc b851 253d
000001c0: 5216 963d 139f 293d d6fe 8e3c 05e3 033e
000001d0: ca87 043d 76c7 323c 2c92 acbc ea9f 0d3d
000001e0: 736d f2bc 251b b73d 64de 12bb fc0a 67bc
000001f0: 4069 50bd 0cb0 47bc 3cc2 18bd 2dea 723b
00000200: 8ae8 af3c 56a7 7abd 6bc1 6abc d81d b0ba
00000210: 353a d93d a2e8 943c bff7 783d 52d5 f2bc
00000220: cf9a 163e 1a73 aabb 9f58 ee3c 7e0e da3c
00000230: 1fec 9f3c 4756 a2bd 1993 ba3d eea3 3abc
00000240: 9d64 763c 5fdd 1d3d 52b3 9ebd f27b 383d
00000250: 8e36 613b e23a 1a3c 0ae4 2f3d c232 eb3d
00000260: b178 a43d f17c ebbb 2de9 373d 70f3 8d39
00000270: 7231 643d e417 77bd fc8a 40bd ecbb 9abd
00000280: a4f8 6ebd ca92 933d 84bb b1bc 0862 66bd
00000290: 0d63 093d 5eda 3a3d 74b2 3b3c 6062 99bd
000002a0: 6ec3 9dbb 9d04 9ebb 670e 9b3d ef0e cc3d
000002b0: 1b02 833c 182f 8cbd 344c 42bd ce9e be3d
000002c0: 8aa7 163d 4d9c b43d add7 7bbc b766 9c3c
000002d0: 0a3e 10bd 1eb6 9b3c e24c 523d 9e2b 893d
000002e0: b48f 3fbd 8c0b 833c 5d56 5ebd d75e ebbc
000002f0: a748 d73c 66ee 8fbd 0abc f53d 5a52 793d
00000300: 4730 073c 6e96 7d3d cdf3 833c 1bb8 7fbc
00000310: 44ef 613c 703f e03c 899a f73c 16a9 2bbc
00000320: 8949 ea3c 7a39 ce3d ece3 08bd e214 d33c
00000330: 00da d33d 0fff 303d 6a48 4abd 2d2c 303c
00000340: a663 bcbc b3e3 e3bb 7b6b 9dbd 6836 8abd
00000350: f6fd cc3c cd9d e6bc f0dd 00bd f0d0 7f3b
00000360: 93b8 793d 15cd cd3d 9236 d03d 46fe 4cbd
00000370: 8ae2 acbc b57a 383d 4abb af3c fc8d 2fbb
00000380: 9ead 863c 18c7 87bc 7102 eabb 64fd 01bd
00000390: 9a2e 813c c63a 21bb de24 d83c 5a2a b73d
000003a0: b787 033d 7380 7e3c 461b bf3c fae4 743c
000003b0: f513 92bc f2e8 b2bc ecff a43d 96a2 2fbd
000003c0: 5448 c13d c77b 91bd 3a7d fb3c 8b62 b93d
000003d0: f991 5bbd eb0a 453d b0e1 8bbb 0cd7 afbd
000003e0: 4c2d 853c 7ba6 a6bc 942c cc3c c73a 68bd
000003f0: 08ac 94bd 85e4 693d 705b 793d 9e4c d63d
0.0054737106 -0.05426775 -0.007429222 0.0542253 0.05535631 -0.07098928 -0.056904413 0.029540932
-0.052075755 -0.08046672 0.027749823 0.011561915 0.02623737 -0.008621806 -0.0828803 0.0056546787
-0.04127716 0.12805283 -0.040078584 -0.05911207 -0.04468133 0.10780345 -0.060936157 -0.061259687
0.050060373 0.018990332 -0.06094144 0.0067803646 0.007311545 -0.053846642 -0.0828212 -0.0045114695
-0.066637136 -0.025395367 0.04440752 -0.07181572 -0.08359826 0.020883948 0.015781922 0.040463187
-0.04199953 -0.043836124 0.015319811 -0.038724568 0.06139666 0.01432669 -0.05078002 0.008954087
0.013106758 -0.0076509267 -0.030246243 0.10431444 -0.02501779 0.01727126 -0.07887326 -0.02547638
-0.026834682 0.011201961 0.09153943 0.017394977 -0.0021603343 -0.0063928217 0.055398162 0.0064232317
-0.018769793 0.025261037 0.09222577 0.030381247 0.0701132 0.03902222 -0.0072162757 -0.027490837
0.066779315 0.01336437 0.042338125 0.024432722 0.027202526 0.02509993 -0.04756763 -0.037904684
-0.078703955 -0.008378249 0.04768463 -0.04448075 -0.08291666 -0.049901992 -0.029615415 0.0113587845
-0.035513196 -0.057100162 0.016044158 0.016052382 0.02978374 -0.02266614 0.048871018 -0.034475528
-0.05545561 0.07502167 0.033121936 -0.042909697 0.08405102 -0.009432615 -0.0643783 -0.012739547
-0.032757845 0.052195735 0.05437334 -0.031223405 -0.012083657 -0.023687582 -0.031034071 0.040361136
0.07328476 0.04141147 0.0174555 0.1287957 0.03235606 0.010911813 -0.021065794 0.034576334
-0.029593205 0.08940724 -0.0022410387 -0.01410174 -0.050881624 -0.012187969 -0.03729461 0.003706585
0.021473188 -0.06119474 -0.014328341 -0.0013436629 0.10606805 0.018177334 0.060783144 -0.029642735
0.14707492 -0.0052017095 0.029094992 0.026618239 0.019521771 -0.07926612 0.09110088 -0.011391623
0.0150386365 0.038541194 -0.077490464 0.04504008 0.0034364793 0.009413453 0.042942084 0.11484291
0.080308326 -0.007186525 0.044900108 0.0002707499 0.055711217 -0.06032552 -0.047007546 -0.075553745
-0.05834259 0.07205732 -0.02169586 -0.056245834 0.033541728 0.045618407 0.011456121 -0.07489467
-0.004814557 -0.0048223273 0.075711064 0.09963786 0.015992215 -0.0684492 -0.047435954 0.09307633
0.03678087 0.088188745 -0.015371245 0.019091947 -0.035215415 0.019007739 0.051342852 0.066977724
-0.046767905 0.015996717 -0.05428158 -0.028731747 0.02627976 -0.07027893 0.11998756 0.060869552
0.008251256 0.06191104 0.016107464 -0.015607859 0.0137899555 0.027374 0.030225055 -0.010477325
0.028599517 0.100695565 -0.03342049 0.025766794 0.103443146 0.043211993 -0.049385466 0.01075272
-0.022996735 -0.006954634 -0.07686516 -0.067486584 0.025023442 -0.028151417 -0.031461656 0.0039034449
0.06096704 0.10048882 0.101666585 -0.05004718 -0.021104116 0.045038898 0.021451611 -0.002678751
0.016440209 -0.016574427 -0.0071414043 -0.031735793 0.015769292 -0.0024601682 0.026384767 0.08943625
0.03211185 0.015533554 0.023328435 0.01494717 -0.017831782 -0.021839593 0.08056626 -0.042879663
0.094376236 -0.07103687 0.030699361 0.09051999 -0.053606007 0.048106115 -0.0042688474 -0.08585939
0.01625695 -0.020343056 0.0249236 -0.05669668 -0.07259375 0.0571027 0.060878217 0.10463832

sequential.5.weight f4 [85, 256]
00000000: 147d 23bd 89d1 76bc 71fd 73bd 48d8 28bd
00000010: 5a3a 4d3d cdfa 01bd a879 b43a ffcd 01bd
00000020: e7eb 49bd ebc4 1a3d 3738 473d b52b 7bbd
00000030: 6557 9b3c a554 0a3d 6e4d 673d 4741 c73b
00000040: 5770 4b3b 6842 f2bd a1b1 62bc c81c 53bc
00000050: 9a65 d2bc 3488 97bd ceb7 f9bc ee08 d3bc
00000060: 9949 8b3c 950d 81bd 8890 8cbe adf9 a23c
00000070: bffb 25be 402d 963b 5ca0 e3bc fc0b 0bbd
00000080: d533 6dbe b04c 333d 9238 683c 4b4d 2ebc
00000090: 196b eebc cff0 c0bd 6115 b7be 66d1 2c3d
000000a0: 5df2 533d c8a3 ffbc d71a 103d fe23 f6bc
000000b0: ddb2 88bd d01c 05bd aafe f1bc 60ec 75bd
000000c0: 26f3 883c 967f 23bd e0be 573d 3c28 e3bd
000000d0: 7449 76bd 41df a6bb 2d3d 1b3c 7cbd 323c
000000e0: a94e 0d3d 93bd debd 40c7 7cbe 0fd0 b2bd
000000f0: 2387 c03b 3016 1b3c 8dda 26bd 79aa f43c
00000100: 1c74 4b3d d206 d8bc c9b3 f9bc 9341 343d
00000110: 48f0 a8bd c514 24bc da25 803c fa5c 1fbd
00000120: 6681 1ebe 6ec3 c8bc 1acf 88bd 8bac 0bbe
00000130: 952b 54bc 2d0a a2bc 9f97 1cbc 4a68 083d
00000140: e1cf 4bbc 6f89 433c 5b2b d4bd 1029 57be
00000150: aa36 f3b9 3f57 16bd 07c0 5bbe 6ca4 713b
00000160: 2901 0abe fdba ef3b 2c50 bf3c f8f1 28bd
00000170: 3921 24be aa8e c0bc dbad 9fbd 8654 393d
00000180: 9ae9 e23a 62aa 1ebd 61dc 5a3c 0f41 103d
00000190: 1400 9ebd 27c2 1c3d a4b3 c1bc 048b 093d
000001a0: b99e 39bd 0f2d bebd 439d 47bf fdb9 5cbd
000001b0: a4e1 96bc 05e6 6b3c a299 64bf 5118 73bd
000001c0: df4e fcbc 6176 8dbd 86a9 b5bc 9f14 46bd
000001d0: 09e7 2d3d 75f5 71bd 6b31 79bd b04d e0bd
000001e0: 1faa 8c3c f1f2 a2bd a77f 43bd f4d5 4bbd
000001f0: ef64 493d ef35 8abd 65e4 fabc 5148 99bf
00000200: ecee 07bd 29ef 49bd 804f 40bd 68e5 5b3d
00000210: 38b5 d2bb ac21 643d 0f1c afbd 1e04 393c
00000220: 0a1e 30bd 8f95 c9bb a215 99bd 187d a3bc
00000230: 2ead fabd 0e92 44bd d99f 60bd db2e 41bd
00000240: 3e14 09be 6600 c3bd 4f1f 4bbd 1837 e2bc
00000250: ca6e cabd a69f 473c b467 aabe 529c f8bb
00000260: 5cca f8bd dfc8 2a3d eff7 99be 8908 b8bd
00000270: 7ec6 8cbc 4be5 10bd c271 36bc 8494 db3c
00000280: 41fe 433d acc8 6dbc f859 463c 7f32 92bc
00000290: 754c 5d3d 2870 413c e367 22bd d644 2abd
000002a0: c0e6 8abd 83cd 6ebd 702d c5bd c1b7 23bd
000002b0: 772f e3bd ae3c 313d f640 35bc fe7b 07be
000002c0: aa9a 243d 8fa5 adbf 6f84 5c3d 4c86 3ebb
000002d0: 7574 adbd bfd2 54bd e491 3e3d a3e5 84bd
000002e0: f677 cfbc ae10 5dbc b398 d7bc 3622 3abc
000002f0: 3c6d 28bd 1238 443d c831 e3bd 61b0 373b
00000300: 70cc 39be 5541 48bd 7653 15be 1cb4 54bd
00000310: 7a3f 9abd e8a0 9ebd 5317 34bd be35 00bc
00000320: 4a14 b33c 921f a9bd cee5 89bd 8dad 103d
00000330: 6657 12bd 30bc 5abd aac4 b13b 7ee1 143c
00000340: 119b 443c 6056 6cbd e817 47bd e35a 37bd
00000350: 1bb0 ce3c 86a1 563c c339 60bb ffd5 0c3d
00000360: 6fbc 91bc bffb 69bd a427 0abd 306f b53c
00000370: c4a7 72bd 727b 9e39 17e0 aa3c 2593 c7bd
00000380: 3262 673d 28e4 45bd b016 1a3d ac86 a9bc
00000390: d2ee 72bd 5514 82bd df6c 803c 39dd f0bd
000003a0: 22e2 05be 1f09 d4bd 4cf3 efbc abdd f4bc
000003b0: 9531 73bd ddf1 cbbd 4897 a1bd daa3 00bc
000003c0: 71b6 40bd 3746 fe3c 5bc0 553d c19d bd39
000003d0: 75e3 2ebd 5797 afbd 72cd 15bd baf9 26bd
000003e0: 19c1 f5bb bf61 25bd f45b 4bbd dcb1 7fbd
000003f0: b9bd 273b 9090 87bd c297 f6bd e771 c0bd
-0.039914206 -0.0150646055 -0.059567872 -0.041221887 0.050104477 -0.031733323 0.0013769167 -0.031690594
-0.04929724 0.03778545 0.048637595 -0.06132098 0.018962571 0.03377213 0.056470327 0.0060807797
0.0031042302 -0.11829072 -0.013836295 -0.01288528 -0.025683213 -0.073990256 -0.030483153 -0.025761094
0.017002868 -0.06301419 -0.2745402 0.019894445 -0.16209315 0.004583031 -0.027786426 -0.033946976
-0.23164304 0.043774307 0.014173644 -0.010638545 -0.029103803 -0.094209306 -0.35758498 0.042191885
0.051744808 -0.031206027 0.035181846 -0.03004646 -0.066747405 -0.03249818 -0.029540379 -0.060039878
0.016717505 -0.039916597 0.052672267 -0.110916585 -0.060128644 -0.005092532 0.009475035 0.010909434
0.034498844 -0.10876002 -0.24685383 -0.0873109 0.0058754846 0.009465739 -0.04073577 0.029866444
0.049671277 -0.02637044 -0.030481236 0.04400785 -0.08248955 -0.0100147175 0.015643049 -0.03890703
-0.15479049 -0.02450725 -0.066801265 -0.13640039 -0.012949844 -0.019780243 -0.009557634 0.033302583
-0.012439699 0.011934622 -0.10359832 -0.21011758 -0.000463893 -0.036704298 -0.21459971 0.0036871685
-0.13477005 0.007315992 0.023353659 -0.041246384 -0.16028298 -0.023505528 -0.07796832 0.045246623
0.001731205 -0.03873671 0.0133582065 0.035218295 -0.07714859 0.038271096 -0.02364523 0.03357984
-0.045317385 -0.09285938 -0.7797434 -0.05388831 -0.01841814 0.014398103 -0.89296925 -0.05934936
-0.030799327 -0.069073446 -0.022175562 -0.04835951 0.04245666 -0.059071977 -0.060838144 -0.10952318
0.017170964 -0.07956494 -0.04772916 -0.04976459 0.049168523 -0.06748568 -0.030626485 -1.1975194
-0.033186838 -0.049300347 -0.046950817 0.053685576 -0.0064302944 0.055696175 -0.085502736 0.0112924855
-0.042997397 -0.006151862 -0.07474829 -0.01995711 -0.12240063 -0.04799085 -0.054839943 -0.047163825
-0.13386628 -0.0952156 -0.049590405 -0.027614161 -0.098844126 0.012184059 -0.33282244 -0.007586994
-0.12147972 0.04169547 -0.3007197 -0.08986003 -0.017184492 -0.03537492 -0.01113552 0.026804216
0.047849897 -0.014513176 0.012106411 -0.017846344 0.054027993 0.011806525 -0.039649855 -0.041569553
-0.06782293 -0.05830146 -0.09627807 -0.039970163 -0.110930376 0.04327076 -0.011062851 -0.13230893
0.04018656 -1.356615 0.053837236 -0.0029071746 -0.08469478 -0.051958796 0.04652585 -0.06489112
-0.025325757 -0.013492746 -0.02631793 -0.011360696 -0.0411198 0.047905035 -0.110934794 0.0028028714
-0.18144393 -0.04889043 -0.14582619 -0.05192958 -0.075316384 -0.07745534 -0.043967556 -0.007825313
0.02186026 -0.08257975 -0.06733285 0.03532176 -0.03572788 -0.053402126 0.0054250555 0.009086965
0.011999861 -0.05769956 -0.048606783 -0.04476441 0.025230458 0.013100034 -0.0034214116 0.03438377
-0.017790047 -0.05712485 -0.03372921 0.022147745 -0.059242025 0.00030228082 0.020858807 -0.097448625
0.05649013 -0.04831329 0.037619293 -0.0206941 -0.059309788 -0.06351534 0.015676914 -0.11760945
-0.13074544 -0.10353302 -0.029290818 -0.029890856 -0.059373457 -0.09958241 -0.07890183 -0.007851565
-0.04704899 0.03103934 0.052185398 0.00036166425 -0.04269739 -0.08573788 -0.03657288 -0.0407655
-0.0074998257 -0.04037642 -0.04964824 -0.06242548 0.0025595261 -0.0661937 -0.12040664 -0.09396725

sequential.5.bias f4 [85]
00000000: 8a20 82bc 46fe adbc a7b1 a2bc a430 72bd
00000010: f3a3 ccbc 6a2c d4bd 7ead 65bd 8960 85bc
00000020: 5dcb bdbd f6b9 7d3d 03a4 c8bc 4168 17bc
00000030: d82c d7bb 7215 a6bc 6d64 3fbd 4257 cebd
00000040: 1305 81bd 7870 b4bd 7abc 9bbd dd15 2abe
00000050: 8d01 12bb fd9c 9cbd 45f1 f3bc 2c5b c2bd
00000060: 1963 87bd a53a f9bc e274 0dbd 8577 b0bd
00000070: 6486 3dbd bf8b b8bd 7f85 1a3c a557 0bbd
00000080: 66ca a9bd 57a3 11be 67f5 5dbd f447 29bc
00000090: 92f6 3dbc ff5f a9bd 09a4 fabc d7fa 86bd
000000a0: 95b3 09bc f7a4 33bc 9faf e8bc 4128 dfbd
000000b0: df00 54bd 9212 95bb 934e ddbc 7586 34bd
000000c0: 136e 183c dc99 34bd a41b 7f3c a04c bcbd
000000d0: 1f5a a2bd 1ee8 c0bd b240 c6bd 0d79 cebd
000000e0: c3bb c2bd d12d cebb e2c5 dbbc dc1f e0bd
000000f0: 8394 753c 273e b83c d9c9 01be 71dd c6bd
00000100: b94e 543c ab5c 5bbd efbf 213c 5e71 90bd
00000110: b374 7abc d797 e9bc 946f 5dbd 7446 c9bd
00000120: fdd4 b6bd 3af8 3abd 88b7 90bd d2a3 fdbc
00000130: 8825 b4bd 6222 52bd 9c88 cebd 0cb1 b4bd
00000140: d91b 14be 9646 0d3c 7bd2 b63c 1417 62bd
00000150: c677 cfbc
-0.015884656 -0.021239411 -0.019860102 -0.05912842 -0.02498052 -0.10360034 -0.05607366 -0.016281383
-0.09267304 0.061944924 -0.02449227 -0.009241165 -0.006566625 -0.020273898 -0.046726633 -0.10075237
-0.06299796 -0.08810514 -0.076043084 -0.16609903 -0.0022278756 -0.07647131 -0.029778132 -0.09490046
-0.06610698 -0.030423472 -0.034535296 -0.086165465 -0.046270743 -0.090110295 0.009431242 -0.03401913
-0.082905576 -0.14222465 -0.054189112 -0.010332096 -0.0115944315 -0.08270263 -0.030595796 -0.06590813
-0.008404632 -0.010964624 -0.028404055 -0.1089635 -0.051758643 -0.004549333 -0.027015006 -0.04407354
0.0093035875 -0.044092044 0.015570555 -0.091943026 -0.079273455 -0.09419273 -0.096803084 -0.10081682
-0.09508469 -0.006292083 -0.026827756 -0.10943577 0.014989021 0.022490574 -0.12674655 -0.09710205
0.012958222 -0.053555172 0.009872421 -0.07052873 -0.015286612 -0.028514786 -0.054061487 -0.09827891
-0.08927343 -0.045646884 -0.07066256 -0.030961905 -0.08796221 -0.05130232 -0.1008465 -0.088228315
-0.14463748 0.008622786 0.022317162 -0.05519779 -0.025325667
